Model: "model"
__________________________________________________________________________________________________
Layer (type)                    Output Shape         Param #     Connected to
==================================================================================================
input_1 (InputLayer)            [(None, 256, 256, 1) 0
__________________________________________________________________________________________________
conv2d (Conv2D)                 (None, 256, 256, 16) 160         input_1[0][0]
__________________________________________________________________________________________________
dropout (Dropout)               (None, 256, 256, 16) 0           conv2d[0][0]
__________________________________________________________________________________________________
conv2d_1 (Conv2D)               (None, 256, 256, 16) 2320        dropout[0][0]
__________________________________________________________________________________________________
max_pooling2d (MaxPooling2D)    (None, 128, 128, 16) 0           conv2d_1[0][0]
__________________________________________________________________________________________________
conv2d_2 (Conv2D)               (None, 128, 128, 32) 4640        max_pooling2d[0][0]
__________________________________________________________________________________________________
dropout_1 (Dropout)             (None, 128, 128, 32) 0           conv2d_2[0][0]
__________________________________________________________________________________________________
conv2d_3 (Conv2D)               (None, 128, 128, 32) 9248        dropout_1[0][0]
__________________________________________________________________________________________________
max_pooling2d_1 (MaxPooling2D)  (None, 64, 64, 32)   0           conv2d_3[0][0]
__________________________________________________________________________________________________
conv2d_4 (Conv2D)               (None, 64, 64, 64)   18496       max_pooling2d_1[0][0]
__________________________________________________________________________________________________
dropout_2 (Dropout)             (None, 64, 64, 64)   0           conv2d_4[0][0]
__________________________________________________________________________________________________
conv2d_5 (Conv2D)               (None, 64, 64, 64)   36928       dropout_2[0][0]
__________________________________________________________________________________________________
max_pooling2d_2 (MaxPooling2D)  (None, 32, 32, 64)   0           conv2d_5[0][0]
__________________________________________________________________________________________________
conv2d_6 (Conv2D)               (None, 32, 32, 128)  73856       max_pooling2d_2[0][0]
__________________________________________________________________________________________________
dropout_3 (Dropout)             (None, 32, 32, 128)  0           conv2d_6[0][0]
__________________________________________________________________________________________________
conv2d_7 (Conv2D)               (None, 32, 32, 128)  147584      dropout_3[0][0]
__________________________________________________________________________________________________
max_pooling2d_3 (MaxPooling2D)  (None, 16, 16, 128)  0           conv2d_7[0][0]
__________________________________________________________________________________________________
conv2d_8 (Conv2D)               (None, 16, 16, 256)  295168      max_pooling2d_3[0][0]
__________________________________________________________________________________________________
dropout_4 (Dropout)             (None, 16, 16, 256)  0           conv2d_8[0][0]
__________________________________________________________________________________________________
conv2d_9 (Conv2D)               (None, 16, 16, 256)  590080      dropout_4[0][0]
__________________________________________________________________________________________________
conv2d_transpose (Conv2DTranspo (None, 32, 32, 128)  131200      conv2d_9[0][0]
__________________________________________________________________________________________________
concatenate (Concatenate)       (None, 32, 32, 256)  0           conv2d_transpose[0][0]
                                                                 conv2d_7[0][0]
__________________________________________________________________________________________________
conv2d_10 (Conv2D)              (None, 32, 32, 128)  295040      concatenate[0][0]
__________________________________________________________________________________________________
dropout_5 (Dropout)             (None, 32, 32, 128)  0           conv2d_10[0][0]
__________________________________________________________________________________________________
conv2d_11 (Conv2D)              (None, 32, 32, 128)  147584      dropout_5[0][0]
__________________________________________________________________________________________________
conv2d_transpose_1 (Conv2DTrans (None, 64, 64, 64)   32832       conv2d_11[0][0]
__________________________________________________________________________________________________
concatenate_1 (Concatenate)     (None, 64, 64, 128)  0           conv2d_transpose_1[0][0]
                                                                 conv2d_5[0][0]
__________________________________________________________________________________________________
conv2d_12 (Conv2D)              (None, 64, 64, 64)   73792       concatenate_1[0][0]
__________________________________________________________________________________________________
dropout_6 (Dropout)             (None, 64, 64, 64)   0           conv2d_12[0][0]
__________________________________________________________________________________________________
conv2d_13 (Conv2D)              (None, 64, 64, 64)   36928       dropout_6[0][0]
__________________________________________________________________________________________________
conv2d_transpose_2 (Conv2DTrans (None, 128, 128, 32) 8224        conv2d_13[0][0]
__________________________________________________________________________________________________
concatenate_2 (Concatenate)     (None, 128, 128, 64) 0           conv2d_transpose_2[0][0]
                                                                 conv2d_3[0][0]
__________________________________________________________________________________________________
conv2d_14 (Conv2D)              (None, 128, 128, 32) 18464       concatenate_2[0][0]
__________________________________________________________________________________________________
dropout_7 (Dropout)             (None, 128, 128, 32) 0           conv2d_14[0][0]
__________________________________________________________________________________________________
conv2d_15 (Conv2D)              (None, 128, 128, 32) 9248        dropout_7[0][0]
__________________________________________________________________________________________________
conv2d_transpose_3 (Conv2DTrans (None, 256, 256, 16) 2064        conv2d_15[0][0]
__________________________________________________________________________________________________
concatenate_3 (Concatenate)     (None, 256, 256, 32) 0           conv2d_transpose_3[0][0]
                                                                 conv2d_1[0][0]
__________________________________________________________________________________________________
conv2d_16 (Conv2D)              (None, 256, 256, 16) 4624        concatenate_3[0][0]
__________________________________________________________________________________________________
dropout_8 (Dropout)             (None, 256, 256, 16) 0           conv2d_16[0][0]
__________________________________________________________________________________________________
conv2d_17 (Conv2D)              (None, 256, 256, 16) 2320        dropout_8[0][0]
__________________________________________________________________________________________________
conv2d_18 (Conv2D)              (None, 256, 256, 1)  17          conv2d_17[0][0]
==================================================================================================
Total params: 1,940,817
Trainable params: 1,940,817
Non-trainable params: 0
__________________________________________________________________________________________________
1
2
3
Model: "model_1"
__________________________________________________________________________________________________
Layer (type)                    Output Shape         Param #     Connected to
==================================================================================================
input_2 (InputLayer)            [(None, 256, 256, 1) 0
__________________________________________________________________________________________________
conv2d_19 (Conv2D)              (None, 256, 256, 16) 160         input_2[0][0]
__________________________________________________________________________________________________
dropout_9 (Dropout)             (None, 256, 256, 16) 0           conv2d_19[0][0]
__________________________________________________________________________________________________
conv2d_20 (Conv2D)              (None, 256, 256, 16) 2320        dropout_9[0][0]
__________________________________________________________________________________________________
max_pooling2d_4 (MaxPooling2D)  (None, 128, 128, 16) 0           conv2d_20[0][0]
__________________________________________________________________________________________________
conv2d_21 (Conv2D)              (None, 128, 128, 32) 4640        max_pooling2d_4[0][0]
__________________________________________________________________________________________________
dropout_10 (Dropout)            (None, 128, 128, 32) 0           conv2d_21[0][0]
__________________________________________________________________________________________________
conv2d_22 (Conv2D)              (None, 128, 128, 32) 9248        dropout_10[0][0]
__________________________________________________________________________________________________
max_pooling2d_5 (MaxPooling2D)  (None, 64, 64, 32)   0           conv2d_22[0][0]
__________________________________________________________________________________________________
conv2d_23 (Conv2D)              (None, 64, 64, 64)   18496       max_pooling2d_5[0][0]
__________________________________________________________________________________________________
dropout_11 (Dropout)            (None, 64, 64, 64)   0           conv2d_23[0][0]
__________________________________________________________________________________________________
conv2d_24 (Conv2D)              (None, 64, 64, 64)   36928       dropout_11[0][0]
__________________________________________________________________________________________________
max_pooling2d_6 (MaxPooling2D)  (None, 32, 32, 64)   0           conv2d_24[0][0]
__________________________________________________________________________________________________
conv2d_25 (Conv2D)              (None, 32, 32, 128)  73856       max_pooling2d_6[0][0]
__________________________________________________________________________________________________
dropout_12 (Dropout)            (None, 32, 32, 128)  0           conv2d_25[0][0]
__________________________________________________________________________________________________
conv2d_26 (Conv2D)              (None, 32, 32, 128)  147584      dropout_12[0][0]
__________________________________________________________________________________________________
max_pooling2d_7 (MaxPooling2D)  (None, 16, 16, 128)  0           conv2d_26[0][0]
__________________________________________________________________________________________________
conv2d_27 (Conv2D)              (None, 16, 16, 256)  295168      max_pooling2d_7[0][0]
__________________________________________________________________________________________________
dropout_13 (Dropout)            (None, 16, 16, 256)  0           conv2d_27[0][0]
__________________________________________________________________________________________________
conv2d_28 (Conv2D)              (None, 16, 16, 256)  590080      dropout_13[0][0]
__________________________________________________________________________________________________
conv2d_transpose_4 (Conv2DTrans (None, 32, 32, 128)  131200      conv2d_28[0][0]
__________________________________________________________________________________________________
concatenate_4 (Concatenate)     (None, 32, 32, 256)  0           conv2d_transpose_4[0][0]
                                                                 conv2d_26[0][0]
__________________________________________________________________________________________________
conv2d_29 (Conv2D)              (None, 32, 32, 128)  295040      concatenate_4[0][0]
__________________________________________________________________________________________________
dropout_14 (Dropout)            (None, 32, 32, 128)  0           conv2d_29[0][0]
__________________________________________________________________________________________________
conv2d_30 (Conv2D)              (None, 32, 32, 128)  147584      dropout_14[0][0]
__________________________________________________________________________________________________
conv2d_transpose_5 (Conv2DTrans (None, 64, 64, 64)   32832       conv2d_30[0][0]
__________________________________________________________________________________________________
concatenate_5 (Concatenate)     (None, 64, 64, 128)  0           conv2d_transpose_5[0][0]
                                                                 conv2d_24[0][0]
__________________________________________________________________________________________________
conv2d_31 (Conv2D)              (None, 64, 64, 64)   73792       concatenate_5[0][0]
__________________________________________________________________________________________________
dropout_15 (Dropout)            (None, 64, 64, 64)   0           conv2d_31[0][0]
__________________________________________________________________________________________________
conv2d_32 (Conv2D)              (None, 64, 64, 64)   36928       dropout_15[0][0]
__________________________________________________________________________________________________
conv2d_transpose_6 (Conv2DTrans (None, 128, 128, 32) 8224        conv2d_32[0][0]
__________________________________________________________________________________________________
concatenate_6 (Concatenate)     (None, 128, 128, 64) 0           conv2d_transpose_6[0][0]
                                                                 conv2d_22[0][0]
__________________________________________________________________________________________________
conv2d_33 (Conv2D)              (None, 128, 128, 32) 18464       concatenate_6[0][0]
__________________________________________________________________________________________________
dropout_16 (Dropout)            (None, 128, 128, 32) 0           conv2d_33[0][0]
__________________________________________________________________________________________________
conv2d_34 (Conv2D)              (None, 128, 128, 32) 9248        dropout_16[0][0]
__________________________________________________________________________________________________
conv2d_transpose_7 (Conv2DTrans (None, 256, 256, 16) 2064        conv2d_34[0][0]
__________________________________________________________________________________________________
concatenate_7 (Concatenate)     (None, 256, 256, 32) 0           conv2d_transpose_7[0][0]
                                                                 conv2d_20[0][0]
__________________________________________________________________________________________________
conv2d_35 (Conv2D)              (None, 256, 256, 16) 4624        concatenate_7[0][0]
__________________________________________________________________________________________________
dropout_17 (Dropout)            (None, 256, 256, 16) 0           conv2d_35[0][0]
__________________________________________________________________________________________________
conv2d_36 (Conv2D)              (None, 256, 256, 16) 2320        dropout_17[0][0]
__________________________________________________________________________________________________
conv2d_37 (Conv2D)              (None, 256, 256, 1)  17          conv2d_36[0][0]
==================================================================================================
Total params: 1,940,817
Trainable params: 1,940,817
Non-trainable params: 0
__________________________________________________________________________________________________
2021-04-09 20:15:45.706179: I tensorflow/compiler/mlir/mlir_graph_optimization_pass.cc:116] None of the MLIR optimization passes are enabled (registered 2)
…
