…
2021-04-03 17:08:47.242184: I tensorflow/core/common_runtime/gpu/gpu_device.cc:1261] Device interconnect StreamExecutor with strength 1 edge matrix:
2021-04-03 17:08:47.247372: I tensorflow/core/common_runtime/gpu/gpu_device.cc:1267]
2021-04-03 17:08:47.251412: I tensorflow/compiler/jit/xla_gpu_device.cc:99] Not creating XLA devices, tf_xla_enable_xla_devices not set
1
2
3
Model: "model"
__________________________________________________________________________________________________
Layer (type)                    Output Shape         Param #     Connected to
==================================================================================================
input_1 (InputLayer)            [(None, 320, 320, 1) 0
__________________________________________________________________________________________________
conv2d (Conv2D)                 (None, 320, 320, 16) 160         input_1[0][0]
__________________________________________________________________________________________________
dropout (Dropout)               (None, 320, 320, 16) 0           conv2d[0][0]
__________________________________________________________________________________________________
conv2d_1 (Conv2D)               (None, 320, 320, 16) 2320        dropout[0][0]
__________________________________________________________________________________________________
max_pooling2d (MaxPooling2D)    (None, 160, 160, 16) 0           conv2d_1[0][0]
__________________________________________________________________________________________________
conv2d_2 (Conv2D)               (None, 160, 160, 32) 4640        max_pooling2d[0][0]
__________________________________________________________________________________________________
dropout_1 (Dropout)             (None, 160, 160, 32) 0           conv2d_2[0][0]
__________________________________________________________________________________________________
conv2d_3 (Conv2D)               (None, 160, 160, 32) 9248        dropout_1[0][0]
__________________________________________________________________________________________________
max_pooling2d_1 (MaxPooling2D)  (None, 80, 80, 32)   0           conv2d_3[0][0]
__________________________________________________________________________________________________
conv2d_4 (Conv2D)               (None, 80, 80, 64)   18496       max_pooling2d_1[0][0]
__________________________________________________________________________________________________
dropout_2 (Dropout)             (None, 80, 80, 64)   0           conv2d_4[0][0]
__________________________________________________________________________________________________
conv2d_5 (Conv2D)               (None, 80, 80, 64)   36928       dropout_2[0][0]
__________________________________________________________________________________________________
max_pooling2d_2 (MaxPooling2D)  (None, 40, 40, 64)   0           conv2d_5[0][0]
__________________________________________________________________________________________________
conv2d_6 (Conv2D)               (None, 40, 40, 128)  73856       max_pooling2d_2[0][0]
__________________________________________________________________________________________________
dropout_3 (Dropout)             (None, 40, 40, 128)  0           conv2d_6[0][0]
__________________________________________________________________________________________________
conv2d_7 (Conv2D)               (None, 40, 40, 128)  147584      dropout_3[0][0]
__________________________________________________________________________________________________
max_pooling2d_3 (MaxPooling2D)  (None, 20, 20, 128)  0           conv2d_7[0][0]
__________________________________________________________________________________________________
conv2d_8 (Conv2D)               (None, 20, 20, 256)  295168      max_pooling2d_3[0][0]
__________________________________________________________________________________________________
dropout_4 (Dropout)             (None, 20, 20, 256)  0           conv2d_8[0][0]
__________________________________________________________________________________________________
conv2d_9 (Conv2D)               (None, 20, 20, 256)  590080      dropout_4[0][0]
__________________________________________________________________________________________________
conv2d_transpose (Conv2DTranspo (None, 40, 40, 128)  131200      conv2d_9[0][0]
__________________________________________________________________________________________________
concatenate (Concatenate)       (None, 40, 40, 256)  0           conv2d_transpose[0][0]
                                                                 conv2d_7[0][0]
__________________________________________________________________________________________________
conv2d_10 (Conv2D)              (None, 40, 40, 128)  295040      concatenate[0][0]
__________________________________________________________________________________________________
dropout_5 (Dropout)             (None, 40, 40, 128)  0           conv2d_10[0][0]
__________________________________________________________________________________________________
conv2d_11 (Conv2D)              (None, 40, 40, 128)  147584      dropout_5[0][0]
__________________________________________________________________________________________________
conv2d_transpose_1 (Conv2DTrans (None, 80, 80, 64)   32832       conv2d_11[0][0]
__________________________________________________________________________________________________
concatenate_1 (Concatenate)     (None, 80, 80, 128)  0           conv2d_transpose_1[0][0]
                                                                 conv2d_5[0][0]
__________________________________________________________________________________________________
conv2d_12 (Conv2D)              (None, 80, 80, 64)   73792       concatenate_1[0][0]
__________________________________________________________________________________________________
dropout_6 (Dropout)             (None, 80, 80, 64)   0           conv2d_12[0][0]
__________________________________________________________________________________________________
conv2d_13 (Conv2D)              (None, 80, 80, 64)   36928       dropout_6[0][0]
__________________________________________________________________________________________________
conv2d_transpose_2 (Conv2DTrans (None, 160, 160, 32) 8224        conv2d_13[0][0]
__________________________________________________________________________________________________
concatenate_2 (Concatenate)     (None, 160, 160, 64) 0           conv2d_transpose_2[0][0]
                                                                 conv2d_3[0][0]
__________________________________________________________________________________________________
conv2d_14 (Conv2D)              (None, 160, 160, 32) 18464       concatenate_2[0][0]
__________________________________________________________________________________________________
dropout_7 (Dropout)             (None, 160, 160, 32) 0           conv2d_14[0][0]
__________________________________________________________________________________________________
conv2d_15 (Conv2D)              (None, 160, 160, 32) 9248        dropout_7[0][0]
__________________________________________________________________________________________________
conv2d_transpose_3 (Conv2DTrans (None, 320, 320, 16) 2064        conv2d_15[0][0]
__________________________________________________________________________________________________
concatenate_3 (Concatenate)     (None, 320, 320, 32) 0           conv2d_transpose_3[0][0]
                                                                 conv2d_1[0][0]
__________________________________________________________________________________________________
conv2d_16 (Conv2D)              (None, 320, 320, 16) 4624        concatenate_3[0][0]
__________________________________________________________________________________________________
dropout_8 (Dropout)             (None, 320, 320, 16) 0           conv2d_16[0][0]
__________________________________________________________________________________________________
conv2d_17 (Conv2D)              (None, 320, 320, 16) 2320        dropout_8[0][0]
__________________________________________________________________________________________________
conv2d_18 (Conv2D)              (None, 320, 320, 1)  17          conv2d_17[0][0]
==================================================================================================
Total params: 1,940,817
Trainable params: 1,940,817
Non-trainable params: 0
__________________________________________________________________________________________________
2021-04-03 17:08:48.240363: I tensorflow/compiler/mlir/mlir_graph_optimization_pass.cc:116] None of the MLIR optimization passes are enabled (registered 2)
…
